data.pth (torch, 5418 bytes, 6 tensors)

l1.weight f4 [8, 54]
-0.16753034 -0.084834844 0.35582346 -0.016699692 0.2548824 0.5560295 0.45879012 0.3982617
0.51441246 0.4072645 -0.05718197 0.74739593 0.47083455 0.7222262 -0.09584978 0.47067466
0.17792253 0.6378096 0.075792626 0.045255866 -0.08751231 -0.009889025 -0.01975508 0.4126509
0.6719215 -0.0006327441 0.39184564 -0.10376094 0.09563074 -0.14571697 0.4675986 0.7119716
-0.05227382 0.29341018 0.16134378 0.5104868 0.33045945 0.56554025 0.45529518 0.42756757
0.43342414 0.22588073 0.5898745 -0.010402333 0.7614808 0.094296314 -0.60380137 -0.31918475
0.36904678 0.246272 0.47671753 0.22718868 0.27771202 0.27877396 0.04254201 0.3323338
0.02582533 0.28223023 0.32127544 -0.51210785 -0.05311406 0.014309754 -0.14637166 -0.10321945
0.35361046 0.53978926 0.04460393 0.3829716 0.36184508 0.3170657 0.39973417 -0.40035194
-0.23970719 0.6785098 -0.013152701 0.6133897 0.55757266 0.5694381 0.30649135 0.42022818
-0.3616739 0.2848679 -0.34866557 0.17209274 -0.25563937 0.4933639 0.01528748 -0.02127153
0.42376366 0.28572968 -0.18537612 -0.07329046 -0.065857194 -0.15933841 -0.1968783 -0.46743175
0.19386819 0.14818631 0.25154957 0.32568255 0.13252054 0.11385919 0.22887377 -0.341458
0.35881636 -0.20760287 0.056116804 0.07691532 0.29105964 0.16791753 0.2292935 0.481512
0.37349012 -0.24755476 -0.13971232 -0.08441006 -0.1294172 0.0902215 0.5999041 0.5387602
-0.12145799 0.33331048 -0.012790641 0.22482522 0.36184055 -0.28293493 -0.17765704 0.61501086
0.1524756 0.7113605 0.6918261 0.6290086 0.1814219 0.4486431 -0.3689046 0.045062363
-0.32967296 0.1796156 -0.045156356 0.37245828 0.314036 0.0714218 -0.015052496 0.36554784
-0.3542571 -0.07651875 -0.092022 -0.25548753 0.001217494 -0.31241965 0.17456563 -0.1925836
0.13629135 0.0052855704 0.053164653 0.15261859 0.4519256 -0.42424247 0.26353985 -0.18997942
-0.23890932 0.20645322 0.48116034 0.08103398 -0.43430346 -0.36002973 -0.2723228 0.6415051
-0.08875562 -0.38268077 -0.34614497 -0.26359707 -0.22100745 -0.106998906 0.023193909 0.0025567461
-0.11858715 -0.16232546 -0.40484282 0.66852653 0.43619266 -0.628822 0.3828318 -0.6285565
-0.557347 -0.32638684 -0.1757059 -0.38068917 0.3893902 -0.25417587 0.35704985 -0.19712852
0.43307808 -0.13204442 0.24003986 -0.48047262 -0.18805848 -0.081746146 0.37296912 -0.27326354
-0.1821806 -0.06815997 0.47261742 0.3892147 -0.0942152 -0.047120366 -0.19136097 -0.07195968
0.8944377 0.38807875 0.114214316 0.59095305 -0.12505244 0.39527085 -0.11398297 0.26316535
-0.05778983 0.5687713 0.33086985 -0.23085232 0.15577915 -0.2708721 -0.12929602 0.17962286
0.4453295 0.35132793 -0.13535106 -0.10023394 0.6027828 -0.014593042 0.4072895 -0.1862567
-0.13541155 -0.2708309 0.15504658 -0.27100742 0.67177695 -0.27082422 -0.27307862 -0.67332435
-0.2607983 -0.3516369 0.41308695 0.5561004 0.25371796 0.43828532 -0.28290054 -0.06779182
-0.00836321 0.38570583 0.43625525 -0.14284743 0.3738653 0.3340585 -0.10323143 0.05540073
00000000: 138d 2bbe e4bd adbd 7e2e b63e cbcd 88bc
00000010: f27f 823e f357 0e3f 8ae6 ea3e f5e8 cb3e
00000020: 89b0 033f f984 d03e a437 6abd 5755 3f3f
00000030: 3a11 f13e d1e3 383f e44c c4bd 45fc f03e
00000040: 5331 363e 7d47 233f 2a39 9b3d 375e 393d
00000050: a739 b3bd 9405 22bc 68d5 a1bc fb46 d33e
00000060: 0c03 2c3f bdde 25ba fe9f c83e 9e80 d4bd
00000070: 0dda c33d d436 15be 1569 ef3e c543 363f
00000080: 131d 56bd dc39 963e 4e37 253e 43af 023f
00000090: fb31 a93e 3fc7 103f 731c e93e 23ea da3e
000000a0: c5e9 dd3e 474d 673e 0402 173f 8c6e 2abc
000000b0: 68f0 423f 6d1e c13d ba92 1abf 2f6c a3be
000000c0: b3f3 bc3e ba2e 7c3e 5214 f43e 26a4 683e
000000d0: 4530 8e3e 76bb 8e3e 8840 2e3d a827 aa3e
000000e0: a48f d33c 7b80 903e 377e a43e 8019 03bf
000000f0: 218e 59bd 7573 6a3c 74e2 15be b864 d3bd
00000100: 6e0c b53e a12f 0a3f 9cb2 363d db14 c43e
00000110: c243 b93e 6f56 a23e f5a9 cc3e eefa ccbe
00000120: cd75 75be d1b2 2d3f 6d7e 57bc 1b07 1d3f
00000130: 15bd 0e3f b2c6 113f 6fec 9c3e 2628 d73e
00000140: 522d b9be 35da 913e 4b84 b2be 1439 303e
00000150: 2ae3 82be 319a fc3e 5778 7a3c a241 aebc
00000160: 8df7 d83e 294b 923e 3dd3 3dbe 4f19 96bd
00000170: 23e0 86bd 9c29 23be 779a 49be 3753 efbe
00000180: 6285 463e 27be 173e 1bcb 803e ddbf a63e
00000190: 77b3 073e 022f e93d e35d 6a3e 95d3 aebe
000001a0: c7b6 b73e d995 54be bcda 653d c785 9d3d
000001b0: c505 953e 93f2 2b3e eacb 6a3e be88 f63e
000001c0: 193a bf3e ff7e 7dbe bf10 0fbe 2edf acbd
000001d0: f185 04be 0dc6 b83d 5193 193f 30ec 093f
000001e0: f7be f8bd aca7 aa3e d68f 51bc 9538 663e
000001f0: 2a43 b93e d9dc 90be baeb 35be 5a71 1d3f
00000200: 9022 1c3e b91b 363f 841b 313f b506 213f
00000210: aac6 393e 8cb4 e53e 10e1 bcbe 5093 383d
00000220: e5ca a8be 27ed 373e dff5 38bd dab2 be3e
00000230: 54c9 a03e 9845 923d bf9e 76bc 1629 bb3e
00000240: 3061 b5be ddb5 9cbd 0876 bcbd 43cf 82be
00000250: 5294 9f3a 78f5 9fbe 55c1 323e a334 45be
00000260: f68f 0b3e 9432 ad3b 2ec3 593d 0c48 1c3e
00000270: cb62 e73e 4f36 d9be b2ee 863e f789 42be
00000280: a5a4 74be 7968 533e a65a f63e 25f5 a53d
00000290: 065d debe d155 b8be e56d 8bbe ae39 243f
000002a0: 82c5 b5bd bcee c3be ea39 b1be 32f6 86be
000002b0: c74f 62be 3e22 dbbd 2701 be3c 158f 273b
000002c0: d2dd f2bd a538 26be 8f47 cfbe 8e24 2b3f
000002d0: a554 df3e 7bfa 20bf 8802 c43e 14e9 20bf
000002e0: 4bae 0ebf 2d1c a7be 3fec 33be b1e9 c2be
000002f0: 275e c73e 5723 82be 3dcf b63e 0fdc 49be
00000300: 69bc dd3e a736 07be 02cd 753e 8200 f6be
00000310: 6792 40be 866a a7bd cff5 be3e 33e9 8bbe
00000320: 8d8d 3abe 7497 8bbd e9fa f13e 2647 c73e
00000330: e6f3 c0bd 4901 41bd 21f4 43be 995f 93bd
00000340: def9 643f 42b2 c63e 32e9 e93d b348 173f
00000350: bf0d 00be f160 ca3e e76f e9bd 9cbd 863e
00000360: 07b5 6cbd ff9a 113f c667 a93e 8d64 6cbe
00000370: 9284 1f3e bfaf 8abe 2d66 04be 0eef 373e
00000380: 3a02 e43e 41e1 b33e 7899 0abe 7447 cdbd
00000390: f94f 1a3f a817 6fbc 4088 d03e 14ba 3ebe
000003a0: 53a9 0abe 59aa 8abe 88c4 1e3e 7cc1 8abe
000003b0: 93f9 2b3f 79a9 8abe f6d0 8bbe fc5e 2cbf
000003c0: 5b87 85be c009 b4be 2280 d33e 995c 0e3f
000003d0: 52e7 813e ef66 e03e 57d8 90be 70d6 8abd
000003e0: d805 09bc 3c7b c53e d95c df3e 9946 12be
000003f0: 466b bf3e b709 ab3e 006b d3bd e0eb 623d

l1.bias f4 [8]
0.6039421 0.6869997 0.65131074 0.6285956 0.27083704 0.22734746 0.33825025 1.2226562
00000000: f39b 1a3f 36df 2f3f 4dbc 263f a4eb 203f
00000010: 27ab 8a3e c6cd 683e 232f ad3e 0080 9c3f

l2.weight f4 [8, 8]
0.8484317 -0.5470972 -0.6112679 -0.08453449 0.797204 0.9128169 -0.0043070875 0.42412037
1.1143508 0.9000305 0.5889264 -0.73730403 0.8239011 0.3814498 0.27555266 -0.8533266
0.5139423 0.1454315 0.3058649 0.8952935 -0.9166164 -0.8001359 -1.2525046 0.51997167
0.72483385 -1.005451 -0.73763484 1.2273495 0.52224374 0.90964633 0.1178105 0.85533965
0.7267753 1.0557364 1.2367449 -1.0212582 -0.6493464 0.1885894 -0.8882797 0.48511955
-0.7865632 0.93340075 0.26287088 -0.17168683 0.37376854 -0.6514794 1.374929 0.6589441
-1.1028394 0.86020386 0.780249 0.14183716 0.36522186 -0.08933019 1.3135707 0.2588222
-0.32083854 -0.124339886 0.3088193 1.0955485 -0.5861875 -0.5653583 0.32532415 1.3680222
00000000: d232 593f 900e 0cbf 0e7c 1cbf 6b20 adbd
00000010: 9015 4c3f 5eae 693f 7822 8dbb 4e26 d93e
00000020: 0ca3 8e3f 6668 663f e1c3 163f f5bf 3cbf
00000030: 2feb 523f 634d c33e 3d15 8d3e 9d73 5abf
00000040: b991 033f ffeb 143e 539a 9c3e f431 653f
00000050: 5fa7 6abf b5d5 4cbf 1252 a0bf dd1c 053f
00000060: b68e 393f 9eb2 80bf a3d5 3cbf ca19 9d3f
00000070: c4b1 053f 95de 683f a246 f13d 8af7 5a3f
00000080: f20d 3a3f 5f22 873f a84d 9e3f 97b8 82bf
00000090: 913b 26bf 941d 413e 4c66 63bf 9761 f83e
000000a0: 355c 49bf 5af3 6e3f 0397 863e acce 2fbe
000000b0: 975e bf3e 5bc7 26bf acfd af3f 8fb0 283f
000000c0: d729 8dbf 5236 5c3f 66be 473f c33d 113e
000000d0: 5cfe ba3e bff2 b6bd 1623 a83f 5884 843e
000000e0: f344 a4be e9a5 febd 901d 9e3e ef3a 8c3f
000000f0: 6210 16bf 52bb 10bf e390 a63e 5a1b af3f

l2.bias f4 [8]
0.067565925 0.3140043 0.5186207 0.26075983 0.5341927 0.32061017 0.11514766 0.8300349
00000000: 0160 8a3d 2cc5 a03e 54c4 043f 5082 853e
00000010: dac0 083f 0427 a43e 89d2 eb3d 2b7d 543f

l3.weight f4 [7, 8]
-0.8048308 0.5566883 0.12641414 -1.0985868 0.6242109 -0.387791 -0.25706914 -1.0614749
-0.46009594 0.42901978 -0.7396164 -0.8477909 -0.8013949 0.44943166 0.55940187 -0.83097017
-0.5146723 -1.0433308 0.98443824 0.0742686 -0.43979052 -0.47787416 -1.0119739 0.6828796
-1.0587965 -0.71233 0.19638397 -1.5572523 0.87061876 0.36902356 0.2031252 0.33123526
0.49817657 -0.5143304 -0.5810839 0.6844484 -1.2059025 -1.1504265 -0.4796771 -0.10438552
0.5267581 0.44376773 -1.3413051 0.09131932 0.19413145 -0.8131429 -0.63655055 -0.9495912
-0.8121517 -1.3488917 -0.1084827 -0.49555755 -0.7920263 0.45579827 0.7119221 0.5486789
00000000: 6409 4ebf 2083 0e3f b572 013e 7e9e 8cbf
00000010: 49cc 1f3f 8b8c c6be 919e 83be 69de 87bf
00000020: b291 ebbe 7ba8 db3e 8057 3dbf d308 59bf
00000030: 3728 4dbf e81b e63e f634 0f3f 76ba 54bf
00000040: 90c1 03bf dd8b 85bf 2504 7c3f 231a 983d
00000050: 392c e1be ecab f4be 5c88 81bf 33d1 2e3f
00000060: a586 87bf 425b 36bf e118 493e 0b54 c7bf
00000070: dfe0 5e3f a8f0 bc3e 0d00 503e ab97 a93e
00000080: 0011 ff3e 28ab 03bf eac1 14bf 0338 2f3f
00000090: 035b 9abf 2d41 93bf 3d98 f5be 13c8 d5bd
000000a0: 9ed9 063f 8635 e33e e3af abbf a005 bb3d
000000b0: 65ca 463e 222a 50bf faf4 22bf 6918 73bf
000000c0: 2ce9 4fbf 7ca8 acbf 2e2c debd b8b9 fdbe
000000d0: 3cc2 4abf 645e e93e 8740 363f 3876 0c3f

l3.bias f4 [7]
-0.27333498 0.26170248 0.26562998 0.10174612 0.12972361 0.18410292 0.05753296
00000000: 90f2 8bbe defd 853e a700 883e 4560 d03d
00000010: 44d6 043e 7a85 3c3e aea7 6b3d
